app/src/main/assets/mediapipe_face-mediapipefacedetector.tflite (tflite, 570460 bytes, 109 tensors)

arith.constant f4 [96]
000000 00 c0 4b bc 00 e0 89 3b 00 a0 76 be 00 40 06 bf
       -0.012435913 0.004207611 -0.24084473 -0.52441406
000010 00 c0 26 3d 00 40 5c bd 00 a0 80 bb 00 00 10 bd
       0.04071045 -0.053771973 -0.0039253235 -0.03515625
000020 00 60 cd bd 00 c0 4c 3b 00 80 d3 ba 00 80 2d 3c
       -0.10028076 0.003124237 -0.001613617 0.0105896
000030 00 60 8d bb 00 00 ee 3c 00 c0 11 3b 00 40 02 bc
       -0.0043144226 0.029052734 0.0022239685 -0.007949829
000040 00 c0 8c 3c 00 a0 48 3c 00 a0 2d be 00 c0 09 bf
       0.017181396 0.012245178 -0.16955566 -0.53808594
000050 00 e0 a4 3c 00 80 c3 bd 00 a0 78 bc 00 00 5a 40
       0.020126343 -0.095458984 -0.015174866 3.40625
000060 00 60 ad be 00 a0 1e be 00 80 a1 3b 00 40 1f bb
       -0.33862305 -0.15490723 0.004928589 -0.0024299622
000070 00 60 fb bc 00 20 37 bd 00 c0 55 3b 00 00 47 bb
       -0.030685425 -0.044708252 0.0032615662 -0.003036499
000080 00 20 1a 40 00 80 13 bc 00 e0 03 be 00 80 48 bc
       2.4082031 -0.009002686 -0.12878418 -0.012237549
000090 00 c0 8c be 00 60 b5 3c 00 a0 b2 be 00 a0 aa bc
       -0.27490234 0.022140503 -0.34887695 -0.020828247
0000a0 00 a0 81 bb 00 80 d3 3b 00 e0 aa be 00 e0 d6 bc
       -0.003955841 0.006454468 -0.33374023 -0.026229858
0000b0 00 c0 2d bd 00 40 90 bd 00 e0 91 3a 00 00 1c bd
       -0.042419434 -0.07043457 0.0011129379 -0.038085938
0000c0 00 20 ef bd 00 20 1d be 00 20 08 be 00 60 df 3c
       -0.116760254 -0.15344238 -0.13293457 0.027267456
0000d0 00 e0 62 bc 00 e0 87 ba 00 40 01 bd 00 a0 c9 3f
       -0.013847351 -0.001036644 -0.031555176 1.5751953
0000e0 00 a0 3d 3f 00 a0 85 bb 00 c0 08 bd 00 80 de 3f
       0.74072266 -0.0040779114 -0.03338623 1.7382812
0000f0 00 e0 d7 3c 00 c0 ee bc 00 00 1e bd 00 20 2b bd
       0.026351929 -0.029144287 -0.03857422 -0.041778564
000100 00 00 95 ba 00 00 19 bf 00 a0 98 bb 00 a0 9b be
       -0.0011367798 -0.59765625 -0.0046577454 -0.30395508
000110 00 c0 14 3c 00 a0 e7 3b 00 a0 0b bc 00 00 19 bb
       0.0090789795 0.007068634 -0.008522034 -0.0023345947
000120 00 00 69 bd 00 40 8b bc 00 60 86 3e 00 00 63 3f
       -0.056884766 -0.016998291 0.26245117 0.88671875
000130 00 e0 c9 bc 00 40 d7 bc 00 80 bf be 00 80 13 bf
       -0.024642944 -0.026275635 -0.37402344 -0.5761719
000140 00 c0 17 3e 00 a0 c4 be 00 a0 d6 bc 00 a0 7a bc
       0.14819336 -0.3840332 -0.02619934 -0.015296936
000150 00 a0 58 be 00 00 8c be 00 00 bc 3b 00 80 91 be
       -0.21154785 -0.2734375 0.0057373047 -0.2841797
000160 00 80 d7 3f 00 60 e4 bd 00 40 81 bb 00 00 a8 bc
       1.6835938 -0.11151123 -0.003944397 -0.020507812
000170 00 80 36 be 00 e0 68 bc 00 e0 20 bd 00 e0 c1 bd
       -0.17822266 -0.014213562 -0.039276123 -0.09466553

arith.constant1 f4 [96]
000000 00 60 9b bd 00 a0 a9 bf 00 20 0b 42 00 20 0b 42
       -0.0758667 -1.3251953 34.78125 34.78125
000010 00 e0 54 bf 00 20 15 c0 00 e0 a4 bf 00 40 b3 be
       -0.83154297 -2.3300781 -1.2880859 -0.35009766
000020 00 60 45 bf 00 c0 5e bf 00 a0 1c c0 00 e0 34 3f
       -0.7709961 -0.8701172 -2.4472656 0.70654297
000030 00 40 cf bf 00 e0 e3 bf 00 00 91 bf 00 e0 a1 3e
       -1.6191406 -1.7802734 -1.1328125 0.3161621
000040 00 a0 fe 3e 00 c0 60 bf 00 20 f4 41 00 00 f4 41
       0.49731445 -0.8779297 30.515625 30.5
000050 00 e0 13 3e 00 a0 ad bf 00 c0 2a c0 00 c0 b2 3e
       0.14440918 -1.3564453 -2.6679688 0.3491211
000060 00 a0 99 bf 00 e0 cd bf 00 80 31 c0 00 e0 f6 3d
       -1.2001953 -1.6083984 -2.7734375 0.12054443
000070 00 c0 ac 3e 00 60 a6 bf 00 e0 b6 bf 00 60 09 3f
       0.33740234 -1.2998047 -1.4287109 0.5366211
000080 00 80 08 be 00 80 b6 be 00 c0 b8 41 00 00 b9 41
       -0.13330078 -0.3564453 23.09375 23.125
000090 00 e0 08 bf 00 c0 ff bf 00 c0 dc bf 00 00 a6 bf
       -0.53466797 -1.9980469 -1.7246094 -1.296875
0000a0 00 a0 bd bf 00 60 5a bf 00 40 0c c0 00 c0 f0 3f
       -1.4814453 -0.85302734 -2.1914062 1.8808594
0000b0 00 e0 03 c0 00 20 b0 bf 00 20 98 3f 00 20 10 be
       -2.0605469 -1.3759766 1.1884766 -0.14074707
0000c0 00 20 1a bf 00 40 88 be 00 80 6b 41 00 00 6c 41
       -0.6020508 -0.26611328 14.71875 14.75
0000d0 00 40 1d c0 00 40 50 c0 00 80 9d 3f 00 a0 39 c0
       -2.4570312 -3.2539062 1.2304688 -2.9003906
0000e0 00 a0 0a bf 00 60 f0 bd 00 60 7a bf 00 e0 23 40
       -0.5415039 -0.117370605 -0.97802734 2.5605469
0000f0 00 e0 95 c0 00 c0 9d bf 00 40 52 40 00 60 c7 bf
       -4.6835938 -1.2324219 3.2851562 -1.5576172
000100 00 00 f4 3e 00 60 c6 3b 00 60 da 40 00 80 d5 40
       0.4765625 0.0060539246 6.8242188 6.671875
000110 00 a0 a6 bf 00 c0 e6 bf 00 c0 b5 3f 00 80 e2 bf
       -1.3017578 -1.8027344 1.4199219 -1.7695312
000120 00 60 47 be 00 e0 a3 3e 00 60 2d be 00 e0 cf 3f
       -0.19470215 0.32006836 -0.16931152 1.6240234
000130 00 a0 28 c0 00 40 9a bf 00 60 1f 40 00 20 60 bf
       -2.6347656 -1.2050781 2.4902344 -0.8754883
000140 00 20 2e 3c 00 c0 03 be 00 c0 74 40 00 c0 74 40
       0.010627747 -0.12866211 3.8242188 3.8242188
000150 00 a0 a6 bf 00 20 bb bf 00 a0 bc 3f 00 40 93 bf
       -1.3017578 -1.4619141 1.4736328 -1.1503906
000160 00 e0 62 be 00 80 17 3f 00 80 ad be 00 00 d5 3f
       -0.22155762 0.5917969 -0.3388672 1.6640625
000170 00 c0 24 c0 00 40 a2 bf 00 20 20 40 00 c0 55 bf
       -2.5742188 -1.2675781 2.5019531 -0.83496094

arith.constant2 f4 [32]
000000 00 a0 94 3f 00 60 d1 3f 00 20 02 41 00 20 02 41
       1.1611328 1.6357422 8.1328125 8.1328125
000010 00 00 98 be 00 40 78 be 00 00 e3 3f 00 e0 cf be
       -0.296875 -0.24243164 1.7734375 -0.40600586
000020 00 00 64 3f 00 40 cf 3f 00 80 43 3f 00 20 68 40
       0.890625 1.6191406 0.7636719 3.6269531
000030 00 a0 ed bf 00 20 1b 3f 00 a0 2e 40 00 40 01 3f
       -1.8564453 0.60595703 2.7285156 0.5048828
000040 00 20 b5 3f 00 00 bc 3f 00 e0 07 41 00 e0 07 41
       1.4150391 1.46875 8.4921875 8.4921875
000050 00 40 3f be 00 e0 c3 bd 00 c0 e7 3f 00 c0 cc be
       -0.18676758 -0.09564209 1.8105469 -0.39990234
000060 00 a0 67 3f 00 60 eb 3f 00 80 81 3f 00 20 77 40
       0.90478516 1.8388672 1.0117188 3.8613281
000070 00 40 de bf 00 20 43 3f 00 00 2c 40 00 20 09 3f
       -1.7363281 0.76220703 2.6875 0.53564453

arith.constant3 f4 [6]
000000 00 00 58 40 00 a0 4f 40 00 80 8f 40 00 80 47 40
       3.375 3.2441406 4.484375 3.1171875
000010 00 a0 b9 be 00 a0 35 c0
       -0.36254883 -2.8378906

arith.constant4 f4 [2]
000000 00 40 85 3d 00 c0 27 3d
       0.06506348 0.04095459

arith.constant5 f4 [96]
000000 00 a0 96 3f 00 40 af 3d 00 40 f6 3f 00 00 86 3f
       1.1767578 0.08557129 1.9238281 1.046875
000010 00 a0 41 3f 00 e0 7d 3f 00 80 f5 bf 00 e0 6b 3d
       0.75634766 0.9916992 -1.9179688 0.05758667
000020 00 c0 ae 3d 00 40 28 3f 00 a0 63 c0 00 e0 55 40
       0.08532715 0.65722656 -3.5566406 3.3417969
000030 00 40 9c 3f 00 e0 15 3f 00 60 32 c0 00 00 62 bf
       1.2207031 0.5854492 -2.7871094 -0.8828125
000040 00 00 fa be 00 e0 e5 c0 00 40 e4 3e 00 a0 d0 bf
       -0.48828125 -7.1835938 0.44580078 -1.6298828
000050 00 c0 c8 c0 00 a0 4c 3e 00 a0 0d 40 00 c0 04 c1
       -6.2734375 0.1998291 2.2128906 -8.296875
000060 00 a0 36 be 00 00 e0 be 00 c0 5a 3f 00 20 0b 3f
       -0.17834473 -0.4375 0.8544922 0.54345703
000070 00 40 b5 bf 00 e0 00 3f 00 20 55 3f 00 20 23 40
       -1.4160156 0.50341797 0.83251953 2.5488281
000080 00 80 97 40 00 60 44 c0 00 40 3d c0 00 40 bc 3e
       4.734375 -3.0683594 -2.9570312 0.36767578
000090 00 e0 95 c0 00 00 53 bf 00 40 85 40 00 40 02 40
       -4.6835938 -0.82421875 4.1640625 2.0351562
0000a0 00 40 12 bf 00 c0 66 40 00 60 79 3f 00 20 2c 3f
       -0.57128906 3.6054688 0.9741211 0.6723633
0000b0 00 80 77 3f 00 40 db bf 00 00 3f c0 00 00 c8 3f
       0.9667969 -1.7128906 -2.984375 1.5625
0000c0 00 20 bd be 00 c0 e0 bf 00 40 6e c0 00 20 b3 bd
       -0.36938477 -1.7558594 -3.7226562 -0.08746338
0000d0 00 20 17 3f 00 40 0d 40 00 c0 1b bf 00 00 11 bf
       0.59033203 2.2070312 -0.60839844 -0.56640625
0000e0 00 20 88 3e 00 00 7b 3f 00 e0 ff 3e 00 40 9b 3f
       0.26586914 0.98046875 0.49975586 1.2128906
0000f0 00 20 d8 3f 00 40 b4 be 00 80 b5 3f 00 e0 d4 c0
       1.6884766 -0.35205078 1.4179688 -6.6523438
000100 00 a0 42 be 00 80 3b bf 00 00 79 40 00 40 87 3f
       -0.19006348 -0.7324219 3.890625 1.0566406
000110 00 e0 48 c0 00 80 86 3f 00 20 3c c0 00 60 ff be
       -3.1386719 1.0507812 -2.9394531 -0.4987793
000120 00 40 6d 3f 00 60 53 3e 00 40 bb 3f 00 40 cc bf
       0.9267578 0.2064209 1.4628906 -1.5957031
000130 00 00 8a 3f 00 00 0b 3f 00 80 88 3f 00 e0 20 3f
       1.078125 0.54296875 1.0664062 0.62841797
000140 00 c0 b5 3f 00 20 f7 bf 00 80 16 3f 00 60 53 be
       1.4199219 -1.9306641 0.5878906 -0.2064209
000150 00 e0 58 c0 00 e0 0a 3f 00 60 8d 3f 00 a0 92 3e
       -3.3886719 0.54248047 1.1044922 0.28637695
000160 00 00 35 3f 00 80 f0 bd 00 20 91 bf 00 80 91 be
       0.70703125 -0.11743164 -1.1337891 -0.2841797
000170 00 a0 94 40 00 20 13 3f 00 20 17 40 00 20 a3 3f
       4.6445312 0.57470703 2.3613281 1.2744141

arith.constant6 f4 [96]
000000 00 80 b7 3f 00 00 a0 3f 00 40 11 40 00 e0 26 40
       1.4335938 1.25 2.2695312 2.6074219
000010 00 80 85 bf 00 00 1c 40 00 80 11 40 00 c0 b0 bf
       -1.0429688 2.4375 2.2734375 -1.3808594
000020 00 a0 6f c0 00 60 4c bf 00 00 32 40 00 80 09 40
       -3.7441406 -0.79833984 2.78125 2.1484375
000030 00 20 5a be 00 c0 97 3f 00 60 d2 3e 00 20 80 bf
       -0.2130127 1.1855469 0.41088867 -1.0009766
000040 00 00 8a 3f 00 80 02 c0 00 00 de 3f 00 a0 ac c0
       1.078125 -2.0390625 1.734375 -5.3945312
000050 00 80 61 40 00 80 4d 3f 00 40 a8 3e 00 a0 ad 3f
       3.5234375 0.8027344 0.32861328 1.3564453
000060 00 e0 33 c0 00 e0 4d bf 00 c0 94 3f 00 00 74 3f
       -2.8105469 -0.8041992 1.1621094 0.953125
000070 00 40 e1 be 00 80 0f 40 00 c0 ba 3f 00 c0 c2 40
       -0.4399414 2.2421875 1.4589844 6.0859375
000080 00 e0 f3 bf 00 60 9d bf 00 20 72 bf 00 20 9f 3e
       -1.9052734 -1.2294922 -0.9458008 0.31079102
000090 00 20 c5 3e 00 40 c5 3c 00 a0 64 c0 00 e0 87 3f
       0.38500977 0.02407837 -3.5722656 1.0615234
0000a0 00 00 91 bf 00 e0 87 40 00 40 99 3f 00 40 fd bf
       -1.1328125 4.2460938 1.1972656 -1.9785156
0000b0 00 40 ac 3f 00 20 1a 3f 00 e0 8b 3e 00 20 98 3c
       1.3457031 0.6020508 0.27319336 0.018569946
0000c0 00 40 3c 40 00 80 17 be 00 40 84 3f 00 00 d3 bf
       2.9414062 -0.14794922 1.0332031 -1.6484375
0000d0 00 40 0a 3e 00 c0 e6 3f 00 a0 9b 3f 00 00 44 bf
       0.13500977 1.8027344 1.2158203 -0.765625
0000e0 00 00 0b c0 00 80 52 3f 00 60 98 3f 00 80 ce be
       -2.171875 0.8222656 1.1904297 -0.4033203
0000f0 00 e0 9b 3f 00 c0 86 bf 00 c0 b3 3f 00 00 32 3f
       1.2177734 -1.0527344 1.4042969 0.6953125
000100 00 c0 b7 3d 00 e0 6f bf 00 c0 03 40 00 40 46 3f
       0.08972168 -0.9370117 2.0585938 0.77441406
000110 00 00 d0 3f 00 60 a9 3e 00 c0 ff 3f 00 40 b8 3e
       1.625 0.33081055 1.9980469 0.35986328
000120 00 80 09 3e 00 40 5a 3f 00 40 c5 be 00 20 00 3f
       0.13427734 0.85253906 -0.3852539 0.5004883
000130 00 40 f4 3f 00 20 a9 3f 00 20 7e 3f 00 00 9e 3f
       1.9082031 1.3212891 0.9926758 1.234375
000140 00 e0 d0 3f 00 a0 a6 bf 00 20 a0 bd 00 00 c6 bf
       1.6318359 -1.3017578 -0.078186035 -1.546875
000150 00 60 4a c0 00 a0 de c0 00 00 17 3f 00 a0 f8 3f
       -3.1621094 -6.9570312 0.58984375 1.9423828
000160 00 00 01 3e 00 e0 fb bd 00 60 08 c0 00 60 cd 3f
       0.12597656 -0.12298584 -2.1308594 1.6044922
000170 00 a0 8f 3f 00 e0 da c0 00 e0 3a 40 00 e0 64 40
       1.1220703 -6.8398438 2.9199219 3.5761719

arith.constant7 f4 [96]
000000 00 a0 64 be 00 00 4f be 00 20 84 3f 00 e0 11 3f
       -0.2232666 -0.20214844 1.0322266 0.5698242
000010 00 a0 eb c0 00 a0 98 3f 00 20 38 3f 00 60 24 bf
       -7.3632812 1.1923828 0.7192383 -0.64208984
000020 00 60 42 3f 00 e0 3c bf 00 40 59 be 00 a0 8e 3f
       0.75927734 -0.73779297 -0.2121582 1.1142578
000030 00 20 55 c1 00 80 27 40 00 00 1c be 00 40 eb be
       -13.3203125 2.6171875 -0.15234375 -0.45947266
000040 00 00 9d be 00 80 05 3f 00 40 46 3e 00 a0 23 c0
       -0.30664062 0.5214844 0.19360352 -2.5566406
000050 00 60 46 3d 00 80 29 c0 00 a0 04 bc 00 e0 97 3f
       0.048431396 -2.6484375 -0.008094788 1.1865234
000060 00 60 74 3f 00 60 15 bf 00 c0 52 3e 00 20 d2 c0
       0.95458984 -0.5834961 0.20581055 -6.5664062
000070 00 20 d8 bc 00 e0 0a c0 00 20 42 c0 00 60 67 40
       -0.026382446 -2.1699219 -3.0332031 3.6152344
000080 00 20 9a 3f 00 20 a8 3f 00 00 b6 3f 00 00 8e 3f
       1.2041016 1.3134766 1.421875 1.109375
000090 00 20 e4 bd 00 a0 d5 be 00 60 a4 bf 00 20 14 3f
       -0.11138916 -0.41723633 -1.2841797 0.5786133
0000a0 00 20 1f 3f 00 60 0e 3f 00 60 24 3f 00 00 12 3f
       0.62158203 0.55615234 0.64208984 0.5703125
0000b0 00 60 82 bd 00 e0 20 c0 00 60 ae 3f 00 80 60 3f
       -0.06365967 -2.5136719 1.3623047 0.8769531
0000c0 00 20 6f 3f 00 40 21 c0 00 40 52 be 00 e0 11 40
       0.93408203 -2.5195312 -0.20532227 2.2792969
0000d0 00 e0 23 40 00 60 81 bf 00 c0 e6 be 00 60 97 be
       2.5605469 -1.0107422 -0.4506836 -0.2956543
0000e0 00 c0 0a 3e 00 a0 8e 3e 00 40 97 3f 00 e0 7d bf
       0.13549805 0.27856445 1.1816406 -0.9916992
0000f0 00 a0 67 3e 00 20 3e 3e 00 40 bd 3c 00 e0 0e bf
       0.22619629 0.18566895 0.023101807 -0.55810547
000100 00 20 a0 bd 00 a0 14 be 00 c0 a6 c0 00 60 b4 be
       -0.078186035 -0.1451416 -5.2109375 -0.35229492
000110 00 20 05 3c 00 c0 2b be 00 c0 de 3c 00 c0 79 3e
       0.008125305 -0.16772461 0.027191162 0.24389648
000120 00 80 37 3f 00 c0 03 bf 00 c0 ad 3d 00 80 d7 3e
       0.7167969 -0.51464844 0.08483887 0.42089844
000130 00 20 26 bf 00 e0 56 3e 00 00 12 bf 00 00 02 3e
       -0.6489258 0.20983887 -0.5703125 0.12695312
000140 00 20 b1 3f 00 a0 26 be 00 00 7f be 00 40 00 c0
       1.3837891 -0.16271973 -0.24902344 -2.0039062
000150 00 60 8b bf 00 60 b7 3e 00 80 e7 3e 00 80 60 c0
       -1.0888672 0.3581543 0.45214844 -3.5078125
000160 00 60 e5 3e 00 40 a1 3d 00 40 39 3f 00 60 85 3e
       0.44799805 0.07873535 0.7236328 0.26049805
000170 00 c0 73 3f 00 e0 ae be 00 a0 76 3f 00 00 69 c0
       0.95214844 -0.34155273 0.9633789 -3.640625

arith.constant8 f4 [96]
000000 00 80 59 3f 00 40 dd bf 00 a0 92 3e 00 20 28 bf
       0.8496094 -1.7285156 0.28637695 -0.6567383
000010 00 c0 d6 c0 00 a0 06 40 00 c0 66 bf 00 e0 fa 3e
       -6.7109375 2.1035156 -0.9013672 0.48999023
000020 00 80 78 3f 00 40 0c 40 00 a0 1c be 00 e0 f7 be
       0.9707031 2.1914062 -0.1529541 -0.48413086
000030 00 80 66 3f 00 e0 ae 3f 00 e0 3f be 00 e0 5e be
       0.9003906 1.3662109 -0.18737793 -0.21765137
000040 00 60 d8 3e 00 80 94 be 00 80 ba bf 00 60 64 c0
       0.42260742 -0.29003906 -1.4570312 -3.5683594
000050 00 20 58 3e 00 20 33 3c 00 20 af be 00 60 96 3e
       0.21105957 0.010932922 -0.34204102 0.29370117
000060 00 80 b4 c0 00 a0 0f 3d 00 a0 4a be 00 c0 a9 3e
       -5.640625 0.035064697 -0.19787598 0.33154297
000070 00 80 a2 bf 00 e0 25 be 00 e0 46 bf 00 20 3c bf
       -1.2695312 -0.1619873 -0.77685547 -0.7348633
000080 00 a0 0f 40 00 60 88 bf 00 80 52 bf 00 60 1a be
       2.2441406 -1.0654297 -0.8222656 -0.15075684
000090 00 80 89 3e 00 40 59 bf 00 20 b9 bf 00 80 d5 3e
       0.2685547 -0.8486328 -1.4462891 0.4169922
0000a0 00 c0 00 bf 00 60 f5 3c 00 00 18 3d 00 60 bb 3b
       -0.5029297 0.029953003 0.037109375 0.005718231
0000b0 00 80 1b 3f 00 60 04 40 00 e0 32 c1 00 c0 32 3e
       0.6074219 2.0683594 -11.1796875 0.17456055
0000c0 00 c0 1b bf 00 80 b9 bf 00 60 be 3d 00 c0 60 3f
       -0.60839844 -1.4492188 0.09295654 0.8779297
0000d0 00 00 98 3f 00 60 88 be 00 e0 a3 3e 00 40 7f be
       1.1875 -0.26635742 0.32006836 -0.24926758
0000e0 00 60 7b be 00 a0 9d bc 00 a0 10 3f 00 80 a1 3e
       -0.2454834 -0.019241333 0.5649414 0.3154297
0000f0 00 c0 16 bf 00 00 e5 be 00 00 56 3e 00 20 3a be
       -0.5888672 -0.44726562 0.20898438 -0.1817627
000100 00 80 9d be 00 00 38 be 00 e0 8b 3f 00 e0 52 3e
       -0.3076172 -0.1796875 1.0927734 0.20593262
000110 00 60 0f bf 00 a0 22 3f 00 40 aa be 00 00 92 3d
       -0.5600586 0.6352539 -0.33251953 0.07128906
000120 00 a0 20 3f 00 c0 c3 3f 00 e0 95 3f 00 e0 90 be
       0.6274414 1.5292969 1.1708984 -0.28295898
000130 00 a0 c2 bd 00 40 c5 3e 00 80 68 3f 00 00 7d bf
       -0.09503174 0.3852539 0.9082031 -0.98828125
000140 00 80 be be 00 40 56 be 00 00 b1 be 00 e0 08 bf
       -0.3720703 -0.20922852 -0.34570312 -0.53466797
000150 00 20 07 3f 00 00 02 40 00 c0 b6 3e 00 40 67 be
       0.52783203 2.03125 0.3569336 -0.22583008
000160 00 a0 7d be 00 20 90 c0 00 a0 e0 bd 00 40 97 bd
       -0.24768066 -4.5039062 -0.109680176 -0.07385254
000170 00 c0 b0 3f 00 a0 ad 3f 00 00 61 3e 00 60 cf bf
       1.3808594 1.3564453 0.21972656 -1.6201172

arith.constant9 f4 [96]
000000 00 e0 8e bf 00 80 8b bf 00 00 9c 3e 00 40 d0 3f
       -1.1162109 -1.0898438 0.3046875 1.6269531
000010 00 c0 bc be 00 c0 d1 3f 00 c0 df 3f 00 c0 a3 3f
       -0.36865234 1.6386719 1.7480469 1.2792969
000020 00 40 ce 3f 00 00 e7 bf 00 a0 61 be 00 40 9e bc
       1.6113281 -1.8046875 -0.22033691 -0.019317627
000030 00 80 22 40 00 60 ec be 00 00 b6 be 00 a0 c2 bc
       2.5390625 -0.46166992 -0.35546875 -0.023757935
000040 00 e0 46 be 00 20 77 bf 00 c0 a8 3e 00 e0 53 c0
       -0.19421387 -0.96533203 0.32958984 -3.3105469
000050 00 a0 f1 be 00 40 ba 3e 00 c0 e0 3e 00 a0 6c 3e
       -0.47192383 0.36376953 0.43896484 0.2310791
000060 00 20 95 bf 00 00 a5 c0 00 40 5a 3f 00 a0 7f 3f
       -1.1650391 -5.15625 0.85253906 0.99853516
000070 00 60 f6 3f 00 e0 cb 3e 00 80 ce bf 00 40 0d 3f
       1.9248047 0.39819336 -1.6132812 0.5517578
000080 00 20 66 bf 00 80 8d bf 00 e0 a7 3e 00 40 a5 3f
       -0.8989258 -1.1054688 0.32788086 1.2910156
000090 00 e0 04 40 00 80 9f 3d 00 c0 57 3f 00 a0 4a be
       2.0761719 0.07788086 0.84277344 -0.19787598
0000a0 00 e0 76 bf 00 20 a2 3f 00 00 96 be 00 40 44 bd
       -0.96435547 1.2666016 -0.29296875 -0.047912598
0000b0 00 a0 57 bf 00 00 74 bf 00 20 65 c0 00 20 a7 3f
       -0.84228516 -0.953125 -3.5800781 1.3056641
0000c0 00 60 18 3f 00 a0 46 3f 00 e0 bb 3e 00 c0 a1 3f
       0.59521484 0.7758789 0.36694336 1.2636719
0000d0 00 a0 23 bf 00 c0 52 3f 00 40 41 bf 00 e0 a5 3f
       -0.63916016 0.8232422 -0.7548828 1.2958984
0000e0 00 c0 cc 3e 00 40 f9 bf 00 e0 4e 3f 00 a0 89 3e
       0.39990234 -1.9472656 0.80810547 0.26879883
0000f0 00 e0 b0 3b 00 00 9b 3f 00 c0 21 3f 00 00 17 bf
       0.0053977966 1.2109375 0.63183594 -0.58984375
000100 00 60 b6 3e 00 00 65 3e 00 60 e0 bf 00 00 98 3e
       0.35620117 0.22363281 -1.7529297 0.296875
000110 00 20 1a bc 00 a0 23 bf 00 60 ec 3d 00 40 75 3e
       -0.009407043 -0.63916016 0.11541748 0.23950195
000120 00 e0 8b bb 00 e0 63 bc 00 e0 3e 3f 00 c0 17 3c
       -0.0042686462 -0.013908386 0.74560547 0.009262085
000130 00 60 15 be 00 40 e2 3e 00 60 8b 3d 00 c0 f6 be
       -0.14587402 0.44189453 0.0680542 -0.4819336
000140 00 20 e6 bd 00 20 cb 3e 00 60 44 3f 00 c0 ee 3e
       -0.11236572 0.39672852 0.76708984 0.4663086
000150 00 40 7e be 00 60 97 be 00 60 53 3f 00 20 c6 3e
       -0.24829102 -0.2956543 0.8256836 0.3869629
000160 00 80 01 c0 00 40 59 3f 00 60 eb bf 00 40 61 3d
       -2.0234375 0.8486328 -1.8388672 0.054992676
000170 00 a0 e0 bd 00 c0 a1 bf 00 60 ee be 00 c0 8d 3f
       -0.109680176 -1.2636719 -0.46557617 1.1074219

arith.constant10 f4 [96]
000000 00 60 94 3f 00 20 64 bf 00 80 f1 3f 00 a0 a7 3f
       1.1591797 -0.8911133 1.8867188 1.3095703
000010 00 00 cd be 00 00 b2 be 00 00 f9 3f 00 00 90 3f
       -0.40039062 -0.34765625 1.9453125 1.125
000020 00 80 cd bf 00 e0 92 bf 00 00 70 bf 00 60 ce bf
       -1.6054688 -1.1474609 -0.9375 -1.6123047
000030 00 c0 80 3e 00 80 14 3e 00 a0 03 3f 00 a0 bf 3e
       0.25146484 0.14501953 0.51416016 0.37426758
000040 00 00 63 3f 00 a0 9c bf 00 80 14 40 00 e0 9f c0
       0.88671875 -1.2236328 2.3203125 -4.9960938
000050 00 20 66 3f 00 00 f6 bf 00 40 84 bf 00 20 a9 3e
       0.8989258 -1.921875 -1.0332031 0.33032227
000060 00 c0 1d 3e 00 a0 a1 c0 00 e0 a6 be 00 c0 46 3f
       0.15405273 -5.0507812 -0.32592773 0.7763672
000070 00 00 48 40 00 80 c9 3f 00 20 1d bf 00 20 57 bf
       3.125 1.5742188 -0.61376953 -0.84033203
000080 00 60 57 bf 00 20 d4 bf 00 80 47 3f 00 40 77 3f
       -0.8413086 -1.6572266 0.7792969 0.9658203
000090 00 c0 e2 3e 00 00 5d 3f 00 60 0f c0 00 60 c0 3e
       0.4428711 0.86328125 -2.2402344 0.37573242
0000a0 00 60 83 3f 00 80 43 3f 00 60 c1 bd 00 60 a4 3f
       1.0263672 0.7636719 -0.09442139 1.2841797
0000b0 00 a0 9f 3e 00 20 1d 3f 00 a0 06 c0 00 e0 65 3f
       0.31176758 0.61376953 -2.1035156 0.8979492
0000c0 00 80 d6 3f 00 80 2f bf 00 20 18 3e 00 c0 80 3f
       1.6757812 -0.6855469 0.14855957 1.0058594
0000d0 00 a0 e7 3d 00 e0 89 bd 00 a0 dd 3e 00 a0 ec bd
       0.113098145 -0.06732178 0.43286133 -0.11553955
0000e0 00 a0 88 bd 00 e0 26 be 00 80 0a 3f 00 c0 01 be
       -0.066711426 -0.16296387 0.5410156 -0.12670898
0000f0 00 c0 76 3e 00 40 33 be 00 00 a7 3d 00 a0 9c 3f
       0.2409668 -0.17504883 0.08154297 1.2236328
000100 00 20 da 3b 00 80 ef 3d 00 20 7f 3e 00 60 53 bf
       0.0066566467 0.11694336 0.24914551 -0.8256836
000110 00 60 f0 3d 00 40 89 3e 00 a0 25 bf 00 00 07 3e
       0.117370605 0.2680664 -0.64697266 0.13183594
000120 00 60 0c 3f 00 80 d0 be 00 20 c5 bf 00 a0 31 39
       0.54833984 -0.40722656 -1.5400391 0.0001693964
000130 00 e0 a8 3e 00 20 03 3b 00 60 0d bf 00 c0 b0 bd
       0.32983398 0.0020008087 -0.5522461 -0.08630371
000140 00 40 ad be 00 00 d2 be 00 20 0f bc 00 e0 50 be
       -0.3383789 -0.41015625 -0.008735657 -0.20397949
000150 00 00 ce be 00 80 97 be 00 a0 a1 3e 00 40 bc bd
       -0.40234375 -0.29589844 0.31567383 -0.091918945
000160 00 40 a8 bf 00 a0 35 3f 00 80 68 3f 00 20 4b 3d
       -1.3144531 0.70947266 0.9082031 0.049591064
000170 00 a0 82 3e 00 60 eb be 00 40 b0 3d 00 00 c7 be
       0.25512695 -0.4597168 0.08605957 -0.38867188

arith.constant11 f4 [96]
000000 00 e0 10 40 00 00 11 3e 00 20 c6 bf 00 c0 9b 40
       2.2636719 0.14160156 -1.5478516 4.8671875
000010 00 c0 59 c0 00 00 7b 3d 00 a0 01 c0 00 20 2d c0
       -3.4023438 0.061279297 -2.0253906 -2.7050781
000020 00 60 38 c0 00 e0 84 be 00 20 6d c0 00 a0 70 c0
       -2.8808594 -0.25952148 -3.7050781 -3.7597656
000030 00 e0 84 bf 00 c0 d4 3f 00 80 a7 3f 00 e0 f2 3d
       -1.0380859 1.6621094 1.3085938 0.11859131
000040 00 60 ab 3f 00 e0 e2 bf 00 80 08 40 00 e0 c3 bf
       1.3388672 -1.7724609 2.1328125 -1.5302734
000050 00 40 8d 3d 00 00 1f 40 00 20 85 3f 00 80 78 bf
       0.06896973 2.484375 1.0400391 -0.9707031
000060 00 c0 85 3f 00 60 73 be 00 e0 32 be 00 c0 3c 3f
       1.0449219 -0.2376709 -0.17468262 0.7373047
000070 00 c0 d7 3d 00 e0 09 c0 00 40 09 40 00 c0 44 bf
       0.10534668 -2.1542969 2.1445312 -0.7685547
000080 00 00 eb 3e 00 c0 fb 3e 00 60 11 bf 00 a0 5c bc
       0.45898438 0.49169922 -0.5678711 -0.013465881
000090 00 40 c1 be 00 20 12 c0 00 e0 8a 3f 00 c0 c4 bf
       -0.3774414 -2.2832031 1.0849609 -1.5371094
0000a0 00 a0 03 c0 00 60 e7 bf 00 20 09 40 00 20 48 bf
       -2.0566406 -1.8076172 2.1425781 -0.7817383
0000b0 00 40 07 c0 00 40 e6 c0 00 c0 bd bf 00 00 4d bf
       -2.1132812 -7.1953125 -1.4824219 -0.80078125
0000c0 00 00 c2 3f 00 20 8e bf 00 a0 a5 be 00 e0 d5 3f
       1.515625 -1.1103516 -0.32348633 1.6708984
0000d0 00 c0 5b 3f 00 20 ed bd 00 a0 05 3e 00 00 4a 3f
       0.85839844 -0.11578369 0.13049316 0.7890625
0000e0 00 20 4d bf 00 60 43 bf 00 00 70 3f 00 80 87 bf
       -0.80126953 -0.7631836 0.9375 -1.0585938
0000f0 00 80 ec be 00 00 98 3e 00 e0 12 bf 00 20 53 bf
       -0.46191406 0.296875 -0.57373047 -0.82470703
000100 00 60 f0 bd 00 20 cf 3e 00 a0 0b bf 00 00 97 3e
       -0.117370605 0.40454102 -0.54541016 0.29492188
000110 00 c0 00 bf 00 c0 a5 3f 00 c0 ef 3d 00 20 e9 bd
       -0.5029297 1.2949219 0.11706543 -0.11383057
000120 00 40 15 bf 00 80 9e 3f 00 c0 33 3e 00 80 b4 3e
       -0.5830078 1.2382812 0.17553711 0.35253906
000130 00 40 c8 3e 00 a0 a9 3f 00 60 2d 3f 00 c0 0e be
       0.39111328 1.3251953 0.6772461 -0.1394043
000140 00 e0 c6 3f 00 40 b7 be 00 80 14 be 00 40 7b 3f
       1.5537109 -0.35791016 -0.14501953 0.9814453
000150 00 60 28 bf 00 e0 19 bf 00 40 e6 bd 00 20 8e 3d
       -0.65771484 -0.6010742 -0.11242676 0.06939697
000160 00 20 04 3f 00 60 93 bf 00 00 6e bf 00 20 e7 3d
       0.5161133 -1.1513672 -0.9296875 0.112854004
000170 00 c0 fe 3d 00 a0 78 bf 00 60 df be 00 a0 0b 3f
       0.12438965 -0.9711914 -0.4362793 0.54541016

arith.constant12 f4 [96]
000000 00 a0 ab 3e 00 a0 ec 3e 00 e0 f6 3e 00 20 ae 3f
       0.33520508 0.4621582 0.48217773 1.3603516
000010 00 00 d1 bf 00 00 a2 3f 00 e0 b8 3d 00 e0 f2 3e
       -1.6328125 1.265625 0.090270996 0.47436523
000020 00 00 0b 40 00 a0 82 c0 00 e0 92 40 00 20 83 bf
       2.171875 -4.0820312 4.5898438 -1.0244141
000030 00 a0 89 bf 00 c0 12 3e 00 80 35 bb 00 00 f1 3e
       -1.0751953 0.14331055 -0.0027694702 0.47070312
000040 00 e0 eb 3f 00 00 41 be 00 60 f7 c0 00 20 85 bf
       1.8427734 -0.18847656 -7.7304688 -1.0400391
000050 00 40 40 40 00 a0 05 bf 00 e0 70 3d 00 80 b5 bf
       3.0039062 -0.52197266 0.058807373 -1.4179688
000060 00 20 c6 c0 00 40 07 40 00 80 e5 3f 00 00 ce bf
       -6.1914062 2.1132812 1.7929688 -1.609375
000070 00 40 c3 3e 00 a0 8c bf 00 00 e4 bf 00 60 36 c0
       0.38134766 -1.0986328 -1.78125 -2.8496094
000080 00 60 8e c0 00 e0 f9 bf 00 c0 fd 3f 00 00 12 be
       -4.4492188 -1.9521484 1.9824219 -0.14257812
000090 00 00 15 40 00 a0 96 bf 00 a0 a3 bc 00 c0 43 40
       2.328125 -1.1767578 -0.019973755 3.0585938
0000a0 00 a0 6d bf 00 40 96 bf 00 c0 cf be 00 e0 b4 be
       -0.92822266 -1.1738281 -0.40576172 -0.35327148
0000b0 00 c0 85 bd 00 e0 a0 bf 00 c0 71 3f 00 80 f0 3e
       -0.06530762 -1.2568359 0.94433594 0.46972656
0000c0 00 a0 64 bf 00 a0 e8 3d 00 80 aa 3f 00 80 85 3f
       -0.8930664 0.113586426 1.3320312 1.0429688
0000d0 00 20 67 3f 00 60 91 be 00 e0 8b 3d 00 e0 2f 3f
       0.90283203 -0.28393555 0.06829834 0.6870117
0000e0 00 e0 de bc 00 c0 a6 3f 00 80 51 3e 00 a0 15 bf
       -0.02720642 1.3027344 0.20458984 -0.58447266
0000f0 00 a0 0a 3e 00 00 64 3f 00 c0 b2 3d 00 20 10 bf
       0.13537598 0.890625 0.08728027 -0.5629883
000100 00 20 3a 3d 00 00 18 3e 00 60 2d be 00 c0 42 be
       0.045440674 0.1484375 -0.16931152 -0.19018555
000110 00 e0 83 be 00 20 a6 3e 00 20 1f bf 00 60 25 3e
       -0.25756836 0.3244629 -0.62158203 0.16149902
000120 00 c0 0a 3f 00 60 01 bf 00 60 80 c0 00 20 32 3f
       0.5419922 -0.5053711 -4.0117188 0.6958008
000130 00 e0 df be 00 00 f2 be 00 a0 fc be 00 e0 0b 3f
       -0.43725586 -0.47265625 -0.4934082 0.5463867
000140 00 60 25 3e 00 80 91 3e 00 e0 1e bd 00 20 2b 3e
       0.16149902 0.2841797 -0.03878784 0.16711426
000150 00 a0 02 bf 00 a0 32 3f 00 c0 b9 3d 00 20 12 bf
       -0.5102539 0.6977539 0.09069824 -0.5708008
000160 00 20 53 3e 00 a0 b8 3d 00 60 84 3f 00 80 6a 3f
       0.20617676 0.090148926 1.0341797 0.9160156
000170 00 20 15 bf 00 c0 c4 3e 00 40 45 3f 00 e0 2f 3f
       -0.58251953 0.38427734 0.7705078 0.6870117

arith.constant13 f4 [48]
000000 00 60 0c 3e 00 40 5b 3f 00 60 6e bd 00 80 09 c0
       0.13708496 0.8564453 -0.05819702 -2.1484375
000010 00 60 63 bf 00 80 4b bf 00 00 ba be 00 20 83 3f
       -0.8881836 -0.7949219 -0.36328125 1.0244141
000020 00 20 3b 40 00 20 b7 3e 00 00 33 40 00 40 b3 bf
       2.9238281 0.35766602 2.796875 -1.4003906
000030 00 e0 86 bf 00 20 cb be 00 00 0f be 00 a0 81 bf
       -1.0537109 -0.39672852 -0.13964844 -1.0126953
000040 00 00 10 3e 00 a0 aa 3f 00 20 24 3f 00 c0 d7 3e
       0.140625 1.3330078 0.6411133 0.42138672
000050 00 20 66 bf 00 80 66 3e 00 e0 00 bd 00 20 8f be
       -0.8989258 0.22509766 -0.031463623 -0.27954102
000060 00 60 2e c0 00 40 83 bd 00 20 37 bf 00 00 77 bf
       -2.7246094 -0.064086914 -0.71533203 -0.96484375
000070 00 20 cd bf 00 20 a6 bf 00 e0 a2 bf 00 60 42 3f
       -1.6025391 -1.2978516 -1.2724609 0.75927734
000080 00 40 aa bf 00 80 5a bf 00 60 89 3c 00 00 f0 3e
       -1.3300781 -0.8535156 0.01676941 0.46875
000090 00 60 6f bf 00 c0 47 bf 00 e0 09 3e 00 00 36 bf
       -0.9350586 -0.78027344 0.13464355 -0.7109375
0000a0 00 c0 c0 3c 00 20 b6 be 00 e0 2c 3f 00 e0 c3 3c
       0.023529053 -0.3557129 0.67529297 0.023910522
0000b0 00 60 8a bf 00 20 1b 3f 00 c0 17 40 00 40 70 3f
       -1.0810547 0.60595703 2.3710938 0.93847656

arith.constant14 f4 [48]
000000 00 20 95 be 00 c0 36 c0 00 a0 96 bf 00 e0 87 be
       -0.29125977 -2.8554688 -1.1767578 -0.26538086
000010 00 40 f2 bf 00 20 92 3e 00 80 06 3f 00 c0 95 3f
       -1.8925781 0.2854004 0.5253906 1.1699219
000020 00 80 0c 40 00 a0 da 3e 00 00 3d 3f 00 60 8a 3f
       2.1953125 0.42700195 0.73828125 1.0810547
000030 00 e0 d7 3f 00 60 b7 3f 00 80 08 c0 00 60 b9 3f
       1.6865234 1.4326172 -2.1328125 1.4482422
000040 00 20 9e 3f 00 e0 62 bf 00 60 11 c0 00 60 d2 3f
       1.2353516 -0.88623047 -2.2714844 1.6435547
000050 00 60 34 3f 00 80 29 c0 00 e0 bd bf 00 80 cf 3f
       0.70458984 -2.6484375 -1.4833984 1.6210938
000060 00 40 d3 3e 00 a0 c9 bf 00 00 42 bf 00 00 88 3f
       0.41259766 -1.5751953 -0.7578125 1.0625
000070 00 20 59 bf 00 60 8a be 00 80 6d 3f 00 80 57 bf
       -0.84814453 -0.27026367 0.9277344 -0.8417969
000080 00 20 03 3d 00 00 f4 3f 00 c0 bb bf 00 c0 8c bf
       0.03201294 1.90625 -1.4667969 -1.0996094
000090 00 60 60 3f 00 40 16 bc 00 80 16 3f 00 60 b8 3e
       0.87646484 -0.009170532 0.5878906 0.36010742
0000a0 00 e0 33 3f 00 40 bd 3f 00 60 c3 bf 00 c0 13 3e
       0.7026367 1.4785156 -1.5263672 0.14428711
0000b0 00 60 d5 3e 00 80 04 3f 00 60 50 bf 00 40 ed bf
       0.41674805 0.5175781 -0.81396484 -1.8535156

arith.constant15 f4 [48]
000000 00 60 eb 3e 00 e0 81 bf 00 60 51 3f 00 20 6f 3f
       0.4597168 -1.0146484 0.8178711 0.93408203
000010 00 c0 87 bf 00 a0 8b 3e 00 80 93 3e 00 80 12 c0
       -1.0605469 0.27270508 0.28808594 -2.2890625
000020 00 20 61 3e 00 40 d1 40 00 e0 0e 40 00 c0 7e bf
       0.21984863 6.5390625 2.2324219 -0.9951172
000030 00 20 37 bf 00 40 1d 3d 00 e0 98 3f 00 00 a1 3f
       -0.71533203 0.038391113 1.1943359 1.2578125
000040 00 40 41 3e 00 60 50 be 00 e0 a1 c0 00 c0 28 c0
       0.1887207 -0.20349121 -5.0585938 -2.6367188
000050 00 a0 91 3f 00 00 79 40 00 c0 a7 3f 00 40 dd bf
       1.1376953 3.890625 1.3105469 -1.7285156
000060 00 40 84 3f 00 60 e6 3e 00 40 ec 3f 00 80 32 40
       1.0332031 0.44995117 1.8457031 2.7890625
000070 00 00 a3 bf 00 00 37 bf 00 a0 b2 bd 00 20 9c be
       -1.2734375 -0.71484375 -0.08721924 -0.30493164
000080 00 e0 15 bf 00 20 29 c0 00 40 ae 3f 00 a0 b1 3f
       -0.5854492 -2.6425781 1.3613281 1.3876953
000090 00 e0 db 3e 00 80 90 be 00 a0 98 be 00 40 85 3e
       0.42944336 -0.28222656 -0.2980957 0.2602539
0000a0 00 a0 a5 3f 00 40 25 bf 00 80 aa 3f 00 00 81 3e
       1.2939453 -0.6455078 1.3320312 0.25195312
0000b0 00 20 a9 3f 00 e0 61 c0 00 c0 f9 3f 00 60 74 bf
       1.3212891 -3.5292969 1.9511719 -0.95458984

arith.constant16 f4 [48]
000000 00 60 55 bf 00 20 2d c0 00 00 22 40 00 c0 ff bf
       -0.8334961 -2.7050781 2.53125 -1.9980469
000010 00 40 89 40 00 e0 b6 3f 00 40 b1 3f 00 20 c3 be
       4.2890625 1.4287109 1.3847656 -0.38110352
000020 00 e0 81 3f 00 60 ac 3f 00 60 d9 3f 00 c0 89 be
       1.0146484 1.3466797 1.6982422 -0.26904297
000030 00 40 2e 40 00 60 34 3f 00 a0 15 3f 00 e0 14 40
       2.7226562 0.70458984 0.58447266 2.3261719
000040 00 20 58 bf 00 00 d8 3f 00 40 a4 bf 00 60 89 40
       -0.8442383 1.6875 -1.2832031 4.2929688
000050 00 20 cf bf 00 00 45 bf 00 c0 ac be 00 80 1d c0
       -1.6181641 -0.76953125 -0.33740234 -2.4609375
000060 00 80 7d 3f 00 20 82 3e 00 80 f3 3e 00 20 22 bf
       0.9902344 0.2541504 0.47558594 -0.6333008
000070 00 00 cb be 00 00 17 bf 00 c0 35 bf 00 00 60 bf
       -0.39648438 -0.58984375 -0.70996094 -0.875
000080 00 c0 d6 bf 00 e0 56 3f 00 e0 16 be 00 20 1d c0
       -1.6777344 0.83935547 -0.14733887 -2.4550781
000090 00 60 e0 bf 00 20 7c bf 00 e0 ac bf 00 20 d0 3e
       -1.7529297 -0.9848633 -1.3505859 0.40649414
0000a0 00 a0 73 3f 00 a0 00 bf 00 80 9a bf 00 00 10 3f
       0.95166016 -0.5024414 -1.2070312 0.5625
0000b0 00 e0 8b 3f 00 e0 38 c0 00 a0 0b 40 00 20 fe bc
       1.0927734 -2.8886719 2.1816406 -0.031021118

arith.constant17 f4 [48]
000000 00 60 8b bf 00 e0 9b 40 00 a0 5f bf 00 c0 83 3f
       -1.0888672 4.8710938 -0.87353516 1.0292969
000010 00 20 06 c0 00 60 b2 3f 00 40 91 bf 00 80 d1 3e
       -2.0957031 1.3935547 -1.1347656 0.4091797
000020 00 e0 b3 bf 00 00 84 c0 00 c0 c4 3f 00 00 40 3e
       -1.4052734 -4.125 1.5371094 0.1875
000030 00 80 82 40 00 80 01 3f 00 c0 84 3e 00 40 4c 3f
       4.078125 0.5058594 0.25927734 0.79785156
000040 00 00 00 be 00 60 a2 3f 00 80 9a c0 00 e0 b5 40
       -0.125 1.2685547 -4.828125 5.6835938
000050 00 c0 15 40 00 00 c1 bf 00 20 0e c0 00 20 ac 3f
       2.3398438 -1.5078125 -2.2207031 1.3447266
000060 00 80 d4 3d 00 60 95 be 00 c0 c1 bf 00 60 88 c0
       0.103759766 -0.29174805 -1.5136719 -4.2617188
000070 00 20 21 40 00 80 bc bf 00 00 e6 bf 00 e0 7a 3f
       2.5175781 -1.4726562 -1.796875 0.97998047
000080 00 e0 b8 3e 00 20 24 40 00 c0 e5 be 00 e0 a2 3f
       0.36108398 2.5644531 -0.44873047 1.2724609
000090 00 a0 cf 3f 00 e0 f4 3e 00 20 97 3e 00 60 ba 3f
       1.6220703 0.47827148 0.29516602 1.4560547
0000a0 00 80 c1 3d 00 c0 17 3f 00 e0 12 be 00 00 12 be
       0.09448242 0.59277344 -0.14343262 -0.14257812
0000b0 00 e0 1a 3e 00 20 e6 bf 00 00 1b 3f 00 e0 03 40
       0.15124512 -1.7978516 0.60546875 2.0605469

arith.constant18 f4 [48]
000000 00 e0 84 3f 00 80 0a 40 00 40 ef 3e 00 e0 18 c0
       1.0380859 2.1640625 0.46728516 -2.3886719
000010 00 a0 8a bf 00 80 b2 be 00 c0 d7 bf 00 00 40 bf
       -1.0830078 -0.3486328 -1.6855469 -0.75
000020 00 00 b0 3f 00 80 5e c0 00 00 d2 3e 00 80 35 bd
       1.375 -3.4765625 0.41015625 -0.044311523
000030 00 60 19 3f 00 00 cf be 00 c0 cf bf 00 40 98 bf
       0.5991211 -0.40429688 -1.6230469 -1.1894531
000040 00 20 ad 3e 00 c0 6f bf 00 80 27 40 00 60 60 40
       0.33813477 -0.93652344 2.6171875 3.5058594
000050 00 60 a3 bf 00 00 82 3e 00 c0 22 bc 00 00 e5 bf
       -1.2763672 0.25390625 -0.009933472 -1.7890625
000060 00 80 36 bf 00 00 06 c0 00 20 82 bf 00 20 ca 3e
       -0.7128906 -2.09375 -1.0166016 0.3947754
000070 00 c0 b8 3f 00 80 12 3f 00 00 07 40 00 a0 91 3f
       1.4433594 0.5722656 2.109375 1.1376953
000080 00 a0 6a bf 00 e0 72 3f 00 60 47 3f 00 60 e6 bd
       -0.9165039 0.94873047 0.7788086 -0.11248779
000090 00 60 ac 3f 00 20 22 3f 00 60 a1 3f 00 80 6f 3f
       1.3466797 0.6333008 1.2607422 0.9355469
0000a0 00 00 df 3f 00 40 70 3f 00 e0 48 3e 00 80 d2 3f
       1.7421875 0.93847656 0.19616699 1.6445312
0000b0 00 c0 9f 3e 00 60 a0 3f 00 40 cb 3e 00 00 0e be
       0.31201172 1.2529297 0.39697266 -0.13867188

arith.constant19 f4 [48]
000000 00 80 89 40 00 00 c4 3e 00 80 85 bf 00 a0 17 c0
       4.296875 0.3828125 -1.0429688 -2.3691406
000010 00 c0 bb bf 00 80 0a c0 00 20 06 40 00 c0 8e bf
       -1.4667969 -2.1640625 2.0957031 -1.1152344
000020 00 a0 18 40 00 80 86 c0 00 e0 88 bf 00 00 f4 3e
       2.3847656 -4.203125 -1.0693359 0.4765625
000030 00 60 c5 3f 00 a0 1c bf 00 c0 0d 3f 00 80 8b bf
       1.5419922 -0.6118164 0.55371094 -1.0898438
000040 00 00 51 3e 00 00 79 40 00 20 c1 bd 00 80 86 3d
       0.20410156 3.890625 -0.09429932 0.06567383
000050 00 e0 de bf 00 a0 70 bf 00 80 49 3e 00 a0 85 3f
       -1.7412109 -0.9399414 0.19677734 1.0439453
000060 00 20 95 bf 00 e0 9c bf 00 e0 b0 be 00 20 e2 bf
       -1.1650391 -1.2255859 -0.34545898 -1.7666016
000070 00 e0 64 3f 00 00 8b bf 00 60 6a c0 00 60 1a c0
       0.89404297 -1.0859375 -3.6621094 -2.4121094
000080 00 e0 17 3f 00 00 31 bf 00 e0 e3 bf 00 a0 a4 3f
       0.5932617 -0.69140625 -1.7802734 1.2861328
000090 00 20 20 3f 00 40 03 c0 00 80 9d bf 00 00 fa bf
       0.6254883 -2.0507812 -1.2304688 -1.953125
0000a0 00 20 09 c0 00 c0 b8 be 00 e0 c9 3e 00 00 ae bf
       -2.1425781 -0.36083984 0.3942871 -1.359375
0000b0 00 20 f0 3f 00 e0 80 bf 00 a0 0f 40 00 60 fe bd
       1.8759766 -1.0068359 2.2441406 -0.12420654

arith.constant20 f4 [48]
000000 00 40 1c c0 00 e0 94 be 00 a0 2c c0 00 80 1c c0
       -2.4414062 -0.29077148 -2.6972656 -2.4453125
000010 00 80 18 c0 00 00 34 c0 00 a0 c8 3f 00 80 5f bf
       -2.3828125 -2.8125 1.5673828 -0.8730469
000020 00 c0 d8 3d 00 80 c5 3f 00 e0 5f 40 00 40 a1 3e
       0.10583496 1.5429688 3.4980469 0.3149414
000030 00 20 3b 3f 00 00 b0 3f 00 80 0f 40 00 e0 3a bd
       0.73095703 1.375 2.2421875 -0.04562378
000040 00 e0 d7 3f 00 20 0e 3f 00 c0 f7 3f 00 80 05 40
       1.6865234 0.5551758 1.9355469 2.0859375
000050 00 80 5b 3f 00 60 ab c0 00 80 34 bf 00 80 f2 be
       0.8574219 -5.3554688 -0.7050781 -0.4736328
000060 00 40 52 3f 00 c0 bc 3f 00 20 58 c0 00 e0 d7 be
       0.82128906 1.4746094 -3.3769531 -0.42163086
000070 00 e0 0e 3e 00 80 34 3e 00 80 0d 3f 00 a0 26 3e
       0.13952637 0.17626953 0.5527344 0.16271973
000080 00 e0 32 3e 00 60 fb bd 00 00 1a 40 00 40 70 bf
       0.17468262 -0.1227417 2.40625 -0.93847656
000090 00 e0 25 3f 00 00 12 40 00 80 10 40 00 80 1c 3f
       0.6479492 2.28125 2.2578125 0.6113281
0000a0 00 00 e4 3f 00 40 4b bf 00 60 1f bf 00 80 24 3f
       1.78125 -0.7939453 -0.6225586 0.6425781
0000b0 00 60 d0 be 00 e0 a2 3f 00 a0 0d c0 00 40 05 3f
       -0.40698242 1.2724609 -2.2128906 0.5205078

arith.constant21 f4 [24]
000000 00 60 2c bf 00 c0 9f bf 00 80 df 3d 00 60 8d 3f
       -0.67333984 -1.2480469 0.10913086 1.1044922
000010 00 a0 74 bf 00 40 c8 3f 00 e0 12 bf 00 60 5c c0
       -0.9555664 1.5644531 -0.57373047 -3.4433594
000020 00 20 60 3e 00 40 52 40 00 00 c7 bd 00 60 b0 3e
       0.21887207 3.2851562 -0.09716797 0.34448242
000030 00 a0 b9 3f 00 00 ce bd 00 20 2c c0 00 c0 6c c0
       1.4501953 -0.10058594 -2.6894531 -3.6992188
000040 00 80 7f bf 00 00 01 c0 00 c0 f0 be 00 00 13 40
       -0.9980469 -2.015625 -0.47021484 2.296875
000050 00 00 ed bb 00 60 96 bf 00 20 eb be 00 20 af 3f
       -0.007232666 -1.1748047 -0.45922852 1.3681641

arith.constant22 f4 [24]
000000 00 00 ac 3e 00 60 30 c0 00 a0 92 3f 00 80 30 40
       0.3359375 -2.7558594 1.1455078 2.7578125
000010 00 00 90 3f 00 e0 11 c0 00 20 39 c0 00 60 ec bf
       1.125 -2.2792969 -2.8925781 -1.8466797
000020 00 e0 19 3f 00 e0 39 c0 00 40 02 3f 00 00 e1 bf
       0.6010742 -2.9042969 0.50878906 -1.7578125
000030 00 a0 64 bf 00 60 4d 3f 00 c0 c5 be 00 00 97 3f
       -0.8930664 0.8022461 -0.38623047 1.1796875
000040 00 80 aa 3f 00 a0 5c bf 00 20 2c bf 00 00 c8 be
       1.3320312 -0.8618164 -0.6723633 -0.390625
000050 00 40 57 bf 00 40 21 c0 00 c0 72 3f 00 40 bf 3f
       -0.8408203 -2.5195312 0.9482422 1.4941406

arith.constant23 f4 [24]
000000 00 40 47 c0 00 c0 59 3f 00 20 41 bf 00 40 ce bf
       -3.1132812 0.85058594 -0.75439453 -1.6113281
000010 00 40 9a 3f 00 60 63 c0 00 c0 b3 3f 00 c0 de be
       1.2050781 -3.5527344 1.4042969 -0.4350586
000020 00 00 ac 3f 00 00 29 c0 00 80 5e 3f 00 40 5c bf
       1.34375 -2.640625 0.8691406 -0.86035156
000030 00 80 7f be 00 e0 42 c0 00 40 5f 3f 00 40 88 bf
       -0.24951172 -3.0449219 0.8720703 -1.0644531
000040 00 a0 fa 3e 00 c0 59 3f 00 80 77 c0 00 80 16 bf
       0.48950195 0.85058594 -3.8671875 -0.5878906
000050 00 c0 af bf 00 60 93 be 00 80 34 40 00 a0 9a bf
       -1.3730469 -0.2878418 2.8203125 -1.2080078

arith.constant24 f4 [24]
000000 00 a0 35 40 00 60 94 3f 00 00 23 40 00 60 04 40
       2.8378906 1.1591797 2.546875 2.0683594
000010 00 80 bc 3f 00 20 45 40 00 c0 53 3f 00 e0 93 3f
       1.4726562 3.0800781 0.82714844 1.1552734
000020 00 a0 41 bf 00 60 77 3f 00 80 9d 3f 00 00 12 40
       -0.75634766 0.9663086 1.2304688 2.28125
000030 00 00 2a c0 00 80 9a 40 00 c0 2d bf 00 20 20 c0
       -2.65625 4.828125 -0.67871094 -2.5019531
000040 00 40 a6 3f 00 60 89 3f 00 20 52 40 00 80 c6 3f
       1.2988281 1.0732422 3.2832031 1.5507812
000050 00 a0 6b c0 00 a0 93 3e 00 c0 43 3f 00 c0 94 3f
       -3.6816406 0.28833008 0.76464844 1.1621094

arith.constant25 f4 [24]
000000 00 20 8a 3e 00 c0 b7 be 00 c0 8d bf 00 80 dc 3f
       0.2697754 -0.35888672 -1.1074219 1.7226562
000010 00 a0 66 40 00 c0 86 40 00 c0 e1 bf 00 c0 a2 3e
       3.6035156 4.2109375 -1.7636719 0.3178711
000020 00 60 66 3f 00 a0 0e 40 00 a0 d7 be 00 20 8c 3f
       0.89990234 2.2285156 -0.42114258 1.0947266
000030 00 80 3b 40 00 a0 b2 3f 00 20 19 bf 00 60 b5 3f
       2.9296875 1.3955078 -0.59814453 1.4169922
000040 00 a0 4e 3e 00 a0 00 40 00 00 68 3e 00 20 41 40
       0.20178223 2.0097656 0.2265625 3.0175781
000050 00 e0 c4 40 00 40 40 bf 00 e0 5d 40 00 e0 20 3f
       6.1523438 -0.75097656 3.4667969 0.62841797

arith.constant26 f4 [24]
000000 00 80 b2 c0 00 c0 4c 3f 00 e0 10 c0 00 c0 ea be
       -5.578125 0.7998047 -2.2636719 -0.4584961
000010 00 20 80 3f 00 80 2a 40 00 e0 29 40 00 e0 c0 40
       1.0009766 2.6640625 2.6542969 6.0273438
000020 00 a0 e3 be 00 60 85 3f 00 40 bd 3e 00 60 16 bf
       -0.44458008 1.0419922 0.3696289 -0.58740234
000030 00 40 dd bf 00 00 cf bf 00 e0 5c be 00 80 2a 40
       -1.7285156 -1.6171875 -0.21569824 2.6640625
000040 00 e0 b9 bf 00 80 9a 3f 00 60 bd bf 00 60 44 40
       -1.4521484 1.2070312 -1.4794922 3.0683594
000050 00 a0 94 3f 00 60 0c 3f 00 a0 1f 40 00 80 50 c0
       1.1611328 0.54833984 2.4941406 -3.2578125

arith.constant27 f4 [24]
000000 00 40 41 3f 00 60 0e 40 00 a0 47 bd 00 40 82 be
       0.7548828 2.2246094 -0.048736572 -0.25439453
000010 00 e0 ce 3f 00 c0 fb 3e 00 20 ca be 00 00 19 40
       1.6162109 0.49169922 -0.3947754 2.390625
000020 00 e0 a7 be 00 40 1c 40 00 80 8b bf 00 40 e6 bf
       -0.32788086 2.4414062 -1.0898438 -1.7988281
000030 00 40 2a c0 00 a0 b8 bf 00 60 98 3c 00 40 d5 bf
       -2.6601562 -1.4423828 0.018600464 -1.6660156
000040 00 e0 44 be 00 c0 d8 3e 00 00 48 bf 00 c0 cd 3f
       -0.19226074 0.42333984 -0.78125 1.6074219
000050 00 c0 7c c0 00 40 6e c0 00 a0 08 40 00 40 89 3f
       -3.9492188 -3.7226562 2.1347656 1.0722656

arith.constant28 f4 [24]
000000 00 80 e0 c0 00 60 50 40 00 c0 75 3f 00 c0 24 c0
       -7.015625 3.2558594 0.95996094 -2.5742188
000010 00 00 13 3e 00 c0 0c 40 00 00 98 bf 00 a0 9d 40
       0.14355469 2.1992188 -1.1875 4.9257812
000020 00 00 41 c0 00 80 33 be 00 60 79 c0 00 c0 f6 bf
       -3.015625 -0.17529297 -3.8964844 -1.9277344
000030 00 e0 5c 40 00 80 7f bf 00 c0 f1 3f 00 60 a7 3f
       3.4511719 -0.9980469 1.8886719 1.3076172
000040 00 e0 a7 bf 00 60 09 bf 00 80 db 40 00 60 ae bf
       -1.3115234 -0.5366211 6.859375 -1.3623047
000050 00 a0 1b 40 00 c0 ad c0 00 40 5a c0 00 40 52 3f
       2.4316406 -5.4296875 -3.4101562 0.82128906

arith.constant29 f4 [24]
000000 00 00 a6 3f 00 a0 85 3f 00 c0 c7 3f 00 80 da be
       1.296875 1.0439453 1.5605469 -0.4267578
000010 00 e0 b6 be 00 e0 23 3f 00 20 0b 3f 00 40 15 bf
       -0.35717773 0.6401367 0.54345703 -0.5830078
000020 00 60 0b c0 00 e0 b3 bf 00 00 e3 3f 00 20 c3 bf
       -2.1777344 -1.4052734 1.7734375 -1.5244141
000030 00 c0 c6 3f 00 a0 12 bf 00 a0 25 3f 00 00 d0 bf
       1.5527344 -0.5727539 0.64697266 -1.625
000040 00 40 91 3f 00 a0 3f be 00 00 90 bf 00 a0 0e c0
       1.1347656 -0.18713379 -1.125 -2.2285156
000050 00 60 e1 3e 00 40 44 3f 00 80 8a c0 00 40 86 3f
       0.44018555 0.76660156 -4.328125 1.0488281

arith.constant30 f4 [24]
000000 00 e0 00 40 00 40 f7 be 00 a0 16 c0 00 e0 24 40
       2.0136719 -0.48291016 -2.3535156 2.5761719
000010 00 40 89 3e 00 20 a9 3f 00 40 00 3f 00 00 9f 3f
       0.2680664 1.3212891 0.50097656 1.2421875
000020 00 a0 6f 3f 00 80 f2 3f 00 40 22 40 00 80 9b 3f
       0.93603516 1.8945312 2.5351562 1.2148438
000030 00 e0 6b 40 00 c0 b2 c0 00 c0 1b bf 00 c0 3e 40
       3.6855469 -5.5859375 -0.60839844 2.9804688
000040 00 60 e2 3f 00 e0 32 3f 00 40 12 c0 00 c0 1e 40
       1.7685547 0.69873047 -2.2851562 2.4804688
000050 00 e0 bc 3e 00 c0 b2 bf 00 00 53 be 00 40 6a bf
       0.36889648 -1.3964844 -0.20605469 -0.91503906

arith.constant31 f4 [24]
000000 00 e0 5e 40 00 c0 26 c0 00 20 55 bf 00 40 b8 bf
       3.4824219 -2.6054688 -0.83251953 -1.4394531
000010 00 a0 c4 bf 00 40 3d 3e 00 40 99 3f 00 00 53 c0
       -1.5361328 0.18481445 1.1972656 -3.296875
000020 00 e0 35 40 00 20 57 40 00 a0 0f 3e 00 60 ef 3f
       2.8417969 3.3613281 0.14025879 1.8701172
000030 00 e0 77 c0 00 a0 02 c0 00 20 34 be 00 20 99 40
       -3.8730469 -2.0410156 -0.17590332 4.7851562
000040 00 00 9d 40 00 40 1a 40 00 e0 c1 3f 00 e0 90 3f
       4.90625 2.4101562 1.5146484 1.1318359
000050 00 80 8e bf 00 40 32 40 00 c0 3f be 00 80 d4 bd
       -1.1132812 2.7851562 -0.18725586 -0.103759766

arith.constant32 f4 [24]
000000 00 00 d4 3f 00 60 4a 40 00 20 43 40 00 80 40 40
       1.65625 3.1621094 3.0488281 3.0078125
000010 00 20 8e 3f 00 80 1f bf 00 80 35 3f 00 20 0f 40
       1.1103516 -0.6230469 0.7089844 2.2363281
000020 00 60 5d c0 00 c0 1a c0 00 c0 24 41 00 20 3a c0
       -3.4589844 -2.4179688 10.296875 -2.9082031
000030 00 40 32 40 00 a0 54 c0 00 a0 6a 40 00 e0 59 40
       2.7851562 -3.3222656 3.6660156 3.4042969
000040 00 00 30 40 00 60 a5 bd 00 e0 a0 40 00 00 0b be
       2.75 -0.08074951 5.0273438 -0.13574219
000050 00 40 2c c0 00 80 49 3f 00 60 53 40 00 40 f3 bf
       -2.6914062 0.7871094 3.3027344 -1.9003906

arith.constant33 f4 [24]
000000 00 a0 c0 3e 00 00 ba 3f 00 80 89 3c 00 60 2c 40
       0.3762207 1.453125 0.016784668 2.6933594
000010 00 00 34 40 00 40 ec 3f 00 80 86 40 00 e0 25 40
       2.8125 1.8457031 4.203125 2.5917969
000020 00 a0 b2 3f 00 c0 a7 40 00 20 a0 3f 00 20 18 40
       1.3955078 5.2421875 1.2509766 2.3769531
000030 00 40 a0 40 00 40 f0 bf 00 e0 25 40 00 40 99 be
       5.0078125 -1.8769531 2.5917969 -0.2993164
000040 00 a0 32 40 00 e0 48 3f 00 c0 03 40 00 40 15 3e
       2.7910156 0.78466797 2.0585938 0.14575195
000050 00 60 ca c0 00 20 99 40 00 80 36 3f 00 a0 ff 3d
       -6.3242188 4.7851562 0.7128906 0.124816895

arith.constant34 f4 [24]
000000 00 80 7f 3f 00 80 07 40 00 80 d3 3e 00 40 c2 3f
       0.9980469 2.1171875 0.41308594 1.5175781
000010 00 20 1d 3f 00 60 d0 3f 00 60 d3 3f 00 20 1e 3f
       0.61376953 1.6279297 1.6513672 0.6176758
000020 00 e0 ce bf 00 e0 41 3e 00 60 c9 be 00 80 2d bf
       -1.6162109 0.18933105 -0.39331055 -0.6777344
000030 00 c0 58 40 00 a0 a3 3f 00 00 4a 40 00 e0 87 3f
       3.3867188 1.2783203 3.15625 1.0615234
000040 00 80 fc 3f 00 20 05 3f 00 a0 a8 be 00 60 86 3f
       1.9726562 0.52001953 -0.3293457 1.0498047
000050 00 80 ea 3e 00 60 cd bb 00 00 a0 3f 00 00 a6 3f
       0.4580078 -0.0062675476 1.25 1.296875

arith.constant35 f4 [24]
000000 00 80 df bf 00 a0 57 3e 00 60 aa 3e 00 60 4f 3e
       -1.7460938 0.21057129 0.33276367 0.20251465
000010 00 00 25 c0 00 60 1d 3f 00 00 e9 bf 00 60 98 3e
       -2.578125 0.6147461 -1.8203125 0.29760742
000020 00 00 51 3f 00 80 1e bf 00 e0 69 3f 00 60 75 40
       0.81640625 -0.6191406 0.9135742 3.8339844
000030 00 60 a9 bf 00 00 fb c0 00 60 db bf 00 20 ca 3f
       -1.3232422 -7.84375 -1.7138672 1.5791016
000040 00 80 96 3f 00 20 16 40 00 00 3d c0 00 20 d8 3d
       1.1757812 2.3457031 -2.953125 0.105529785
000050 00 e0 11 c0 00 40 0e 3f 00 a0 18 40 00 e0 cd 3f
       -2.2792969 0.55566406 2.3847656 1.6083984
